{"class_name": "Model", "config": {"name": "model", "layers": [{"class_name": "InputLayer", "config": {"batch_input_shape": [null, 10], "dtype": "float32", "sparse": false, "ragged": false, "name": "MYINPUT"}, "name": "MYINPUT", "inbound_nodes": []}, {"class_name": "Lambda", "config": {"name": "Feature_normalization", "trainable": true, "dtype": "float32", "function": ["4wMAAAAAAAAAAwAAAAIAAABDAAAAcwwAAAB8AHwBGAB8AhsAUwApAU6pACkD2gN2YWzaBXNoaWZ0\n2gVzY2FsZXIBAAAAcgEAAAD6Qy9ob21lL250b25vbi9Qb3N0ZG9jL1RvcEVGVC9BbmFseXNpcy9O\nZXVyYWxOZXR3b3Jrcy9VdGlscy9IZWxwZXIucHnaCW5vcm1hbGl6ZVkAAABzAgAAAAAB\n", null, null], "function_type": "lambda", "module": "Utils.Helper", "output_shape": null, "output_shape_type": "raw", "output_shape_module": null, "arguments": {"shift": [101.1126708984375, 0.007789029972627759, 434.6043701171875, 179.12894439697266, 285.8090057373047, -0.005208006128668785, 2.188514232635498, 124.17074584960938, 3.3981817960739136, 1.1189505457878113], "scale": [457.02981292724735, 3.3898224638868117, 1170.5359521484422, 622.5360937500017, 1199.32743347168, 0.9694468983262781, 2.551953263282778, 494.04972808838295, 2.87144262522459, 2.4635291695594788]}}, "name": "Feature_normalization", "inbound_nodes": [[["MYINPUT", 0, 0, {}]]]}, {"class_name": "Dense", "config": {"name": "dense", "trainable": true, "dtype": "float32", "units": 20, "activation": "tanh", "use_bias": true, "kernel_initializer": {"class_name": "VarianceScaling", "config": {"scale": 2.0, "mode": "fan_in", "distribution": "truncated_normal", "seed": null}}, "bias_initializer": {"class_name": "Zeros", "config": {}}, "kernel_regularizer": null, "bias_regularizer": null, "activity_regularizer": null, "kernel_constraint": null, "bias_constraint": null}, "name": "dense", "inbound_nodes": [[["Feature_normalization", 0, 0, {}]]]}, {"class_name": "Dropout", "config": {"name": "dropout", "trainable": true, "dtype": "float32", "rate": 0.8, "noise_shape": null, "seed": null}, "name": "dropout", "inbound_nodes": [[["dense", 0, 0, {}]]]}, {"class_name": "BatchNormalization", "config": {"name": "batch_normalization", "trainable": true, "dtype": "float32", "axis": [1], "momentum": 0.99, "epsilon": 0.001, "center": true, "scale": true, "beta_initializer": {"class_name": "Zeros", "config": {}}, "gamma_initializer": {"class_name": "Ones", "config": {}}, "moving_mean_initializer": {"class_name": "Zeros", "config": {}}, "moving_variance_initializer": {"class_name": "Ones", "config": {}}, "beta_regularizer": null, "gamma_regularizer": null, "beta_constraint": null, "gamma_constraint": null}, "name": "batch_normalization", "inbound_nodes": [[["dropout", 0, 0, {}]]]}, {"class_name": "Dense", "config": {"name": "dense_1", "trainable": true, "dtype": "float32", "units": 20, "activation": "relu", "use_bias": true, "kernel_initializer": {"class_name": "VarianceScaling", "config": {"scale": 2.0, "mode": "fan_in", "distribution": "truncated_normal", "seed": null}}, "bias_initializer": {"class_name": "Zeros", "config": {}}, "kernel_regularizer": null, "bias_regularizer": null, "activity_regularizer": null, "kernel_constraint": null, "bias_constraint": null}, "name": "dense_1", "inbound_nodes": [[["batch_normalization", 0, 0, {}]]]}, {"class_name": "Dense", "config": {"name": "MYOUTPUT", "trainable": true, "dtype": "float32", "units": 1, "activation": "sigmoid", "use_bias": true, "kernel_initializer": {"class_name": "VarianceScaling", "config": {"scale": 2.0, "mode": "fan_in", "distribution": "truncated_normal", "seed": null}}, "bias_initializer": {"class_name": "Zeros", "config": {}}, "kernel_regularizer": null, "bias_regularizer": null, "activity_regularizer": null, "kernel_constraint": null, "bias_constraint": null}, "name": "MYOUTPUT", "inbound_nodes": [[["dense_1", 0, 0, {}]]]}], "input_layers": [["MYINPUT", 0, 0]], "output_layers": [["MYOUTPUT", 0, 0]]}, "keras_version": "2.2.4-tf", "backend": "tensorflow"}