{"class_name": "Functional", "config": {"name": "functional_1", "layers": [{"class_name": "InputLayer", "config": {"batch_input_shape": [null, 10], "dtype": "float32", "sparse": false, "ragged": false, "name": "MYINPUT"}, "name": "MYINPUT", "inbound_nodes": []}, {"class_name": "Lambda", "config": {"name": "Feature_normalization", "trainable": true, "dtype": "float64", "function": ["4wMAAAAAAAAAAwAAAAIAAABDAAAAcwwAAAB8AHwBGAB8AhsAUwApAU6pACkD2gN2YWzaBXNoaWZ0\n2gVzY2FsZXIBAAAAcgEAAAD6Qy9ob21lL250b25vbi9Qb3N0ZG9jL1RvcEVGVC9BbmFseXNpcy9O\nZXVyYWxOZXR3b3Jrcy9VdGlscy9IZWxwZXIucHnaCW5vcm1hbGl6ZWAAAABzAgAAAAAB\n", null, null], "function_type": "lambda", "module": "Utils.Helper", "output_shape": null, "output_shape_type": "raw", "output_shape_module": null, "arguments": {"shift": [86.45001983642578, -0.013179675210267305, 1.712822675704956, 2.092656373977661, 2.9379734992980957, 0.0071762939915061, 110.5824089050293, 1.6349061727523804, 1.1077057719230652, 64.974853515625], "scale": [354.5591209411612, 2.704498187173158, 1.585974931716919, 1.5456445217132568, 2.1660951375961277, 2.9547930816188455, 325.3641242980957, 3.370681405067444, 1.8981345295906067, 77.72003173828125]}}, "name": "Feature_normalization", "inbound_nodes": [[["MYINPUT", 0, 0, {}]]]}, {"class_name": "Dense", "config": {"name": "dense", "trainable": true, "dtype": "float32", "units": 50, "activation": "relu", "use_bias": true, "kernel_initializer": {"class_name": "HeNormal", "config": {"seed": null}}, "bias_initializer": {"class_name": "Zeros", "config": {}}, "kernel_regularizer": null, "bias_regularizer": null, "activity_regularizer": null, "kernel_constraint": null, "bias_constraint": null}, "name": "dense", "inbound_nodes": [[["Feature_normalization", 0, 0, {}]]]}, {"class_name": "Dropout", "config": {"name": "dropout", "trainable": true, "dtype": "float32", "rate": 0.2, "noise_shape": null, "seed": null}, "name": "dropout", "inbound_nodes": [[["dense", 0, 0, {}]]]}, {"class_name": "BatchNormalization", "config": {"name": "batch_normalization", "trainable": true, "dtype": "float32", "axis": [1], "momentum": 0.99, "epsilon": 0.001, "center": true, "scale": true, "beta_initializer": {"class_name": "Zeros", "config": {}}, "gamma_initializer": {"class_name": "Ones", "config": {}}, "moving_mean_initializer": {"class_name": "Zeros", "config": {}}, "moving_variance_initializer": {"class_name": "Ones", "config": {}}, "beta_regularizer": null, "gamma_regularizer": null, "beta_constraint": null, "gamma_constraint": null}, "name": "batch_normalization", "inbound_nodes": [[["dropout", 0, 0, {}]]]}, {"class_name": "Dense", "config": {"name": "dense_1", "trainable": true, "dtype": "float32", "units": 50, "activation": "relu", "use_bias": true, "kernel_initializer": {"class_name": "HeNormal", "config": {"seed": null}}, "bias_initializer": {"class_name": "Zeros", "config": {}}, "kernel_regularizer": null, "bias_regularizer": null, "activity_regularizer": null, "kernel_constraint": null, "bias_constraint": null}, "name": "dense_1", "inbound_nodes": [[["batch_normalization", 0, 0, {}]]]}, {"class_name": "BatchNormalization", "config": {"name": "batch_normalization_1", "trainable": true, "dtype": "float32", "axis": [1], "momentum": 0.99, "epsilon": 0.001, "center": true, "scale": true, "beta_initializer": {"class_name": "Zeros", "config": {}}, "gamma_initializer": {"class_name": "Ones", "config": {}}, "moving_mean_initializer": {"class_name": "Zeros", "config": {}}, "moving_variance_initializer": {"class_name": "Ones", "config": {}}, "beta_regularizer": null, "gamma_regularizer": null, "beta_constraint": null, "gamma_constraint": null}, "name": "batch_normalization_1", "inbound_nodes": [[["dense_1", 0, 0, {}]]]}, {"class_name": "Dense", "config": {"name": "MYOUTPUT", "trainable": true, "dtype": "float32", "units": 1, "activation": "sigmoid", "use_bias": true, "kernel_initializer": {"class_name": "HeNormal", "config": {"seed": null}}, "bias_initializer": {"class_name": "Zeros", "config": {}}, "kernel_regularizer": null, "bias_regularizer": null, "activity_regularizer": null, "kernel_constraint": null, "bias_constraint": null}, "name": "MYOUTPUT", "inbound_nodes": [[["batch_normalization_1", 0, 0, {}]]]}], "input_layers": [["MYINPUT", 0, 0]], "output_layers": [["MYOUTPUT", 0, 0]]}, "keras_version": "2.4.0", "backend": "tensorflow"}