node {
  name: "MYINPUT"
  op: "Placeholder"
  attr {
    key: "dtype"
    value {
      type: DT_FLOAT
    }
  }
  attr {
    key: "shape"
    value {
      shape {
        dim {
          size: -1
        }
        dim {
          size: 10
        }
      }
    }
  }
}
node {
  name: "Feature_normalization/Cast"
  op: "Cast"
  input: "MYINPUT"
  attr {
    key: "DstT"
    value {
      type: DT_DOUBLE
    }
  }
  attr {
    key: "SrcT"
    value {
      type: DT_FLOAT
    }
  }
  attr {
    key: "Truncate"
    value {
      b: false
    }
  }
}
node {
  name: "Feature_normalization/sub/y"
  op: "Const"
  attr {
    key: "dtype"
    value {
      type: DT_DOUBLE
    }
  }
  attr {
    key: "value"
    value {
      tensor {
        dtype: DT_DOUBLE
        tensor_shape {
          dim {
            size: 10
          }
        }
        tensor_content: "…"
      }
    }
  }
}
node {
  name: "Feature_normalization/sub"
  op: "Sub"
  input: "Feature_normalization/Cast"
  input: "Feature_normalization/sub/y"
  attr {
    key: "T"
    value {
      type: DT_DOUBLE
    }
  }
}
node {
  name: "Feature_normalization/truediv/y"
  op: "Const"
  attr {
    key: "dtype"
    value {
      type: DT_DOUBLE
    }
  }
  attr {
    key: "value"
    value {
      tensor {
        dtype: DT_DOUBLE
        tensor_shape {
          dim {
            size: 10
          }
        }
        tensor_content: "…"
      }
    }
  }
}
node {
  name: "Feature_normalization/truediv"
  op: "RealDiv"
  input: "Feature_normalization/sub"
  input: "Feature_normalization/truediv/y"
  attr {
    key: "T"
    value {
      type: DT_DOUBLE
    }
  }
}
node {
  name: "dense/kernel"
  op: "Const"
  attr {
    key: "dtype"
    value {
      type: DT_FLOAT
    }
  }
  attr {
    key: "value"
    value {
      tensor {
        dtype: DT_FLOAT
        tensor_shape {
          dim {
            size: 10
          }
          dim {
            size: 50
          }
        }
        tensor_content: "…"
      }
    }
  }
}
node {
  name: "dense/bias"
  op: "Const"
  attr {
    key: "dtype"
    value {
      type: DT_FLOAT
    }
  }
  attr {
    key: "value"
    value {
      tensor {
        dtype: DT_FLOAT
        tensor_shape {
          dim {
            size: 50
          }
        }
        tensor_content: "…"
      }
    }
  }
}
node {
  name: "dense/Cast"
  op: "Cast"
  input: "Feature_normalization/truediv"
  attr {
    key: "DstT"
    value {
      type: DT_FLOAT
    }
  }
  attr {
    key: "SrcT"
    value {
      type: DT_DOUBLE
    }
  }
  attr {
    key: "Truncate"
    value {
      b: false
    }
  }
}
node {
  name: "dense/MatMul/ReadVariableOp"
  op: "Identity"
  input: "dense/kernel"
  attr {
    key: "T"
    value {
      type: DT_FLOAT
    }
  }
}
node {
  name: "dense/MatMul"
  op: "MatMul"
  input: "dense/Cast"
  input: "dense/MatMul/ReadVariableOp"
  attr {
    key: "T"
    value {
      type: DT_FLOAT
    }
  }
  attr {
    key: "transpose_a"
    value {
      b: false
    }
  }
  attr {
    key: "transpose_b"
    value {
      b: false
    }
  }
}
node {
  name: "dense/BiasAdd/ReadVariableOp"
  op: "Identity"
  input: "dense/bias"
  attr {
    key: "T"
    value {
      type: DT_FLOAT
    }
  }
}
node {
  name: "dense/BiasAdd"
  op: "BiasAdd"
  input: "dense/MatMul"
  input: "dense/BiasAdd/ReadVariableOp"
  attr {
    key: "T"
    value {
      type: DT_FLOAT
    }
  }
  attr {
    key: "data_format"
    value {
      s: "NHWC"
    }
  }
}
node {
  name: "dense/Tanh"
  op: "Tanh"
  input: "dense/BiasAdd"
  attr {
    key: "T"
    value {
      type: DT_FLOAT
    }
  }
}
node {
  name: "batch_normalization/gamma"
  op: "Const"
  attr {
    key: "dtype"
    value {
      type: DT_FLOAT
    }
  }
  attr {
    key: "value"
    value {
      tensor {
        dtype: DT_FLOAT
        tensor_shape {
          dim {
            size: 50
          }
        }
        tensor_content: "…"
      }
    }
  }
}
node {
  name: "batch_normalization/beta"
  op: "Const"
  attr {
    key: "dtype"
    value {
      type: DT_FLOAT
    }
  }
  attr {
    key: "value"
    value {
      tensor {
        dtype: DT_FLOAT
        tensor_shape {
          dim {
            size: 50
          }
        }
        tensor_content: "…"
      }
    }
  }
}
node {
  name: "batch_normalization/moving_mean"
  op: "Const"
  attr {
    key: "dtype"
    value {
      type: DT_FLOAT
    }
  }
  attr {
    key: "value"
    value {
      tensor {
        dtype: DT_FLOAT
        tensor_shape {
          dim {
            size: 50
          }
        }
        tensor_content: "…"
      }
    }
  }
}
node {
  name: "batch_normalization/moving_variance"
  op: "Const"
  attr {
    key: "dtype"
    value {
      type: DT_FLOAT
    }
  }
  attr {
    key: "value"
    value {
      tensor {
        dtype: DT_FLOAT
        tensor_shape {
          dim {
            size: 50
          }
        }
        tensor_content: "…"
      }
    }
  }
}
node {
  name: "batch_normalization/batchnorm/ReadVariableOp"
  op: "Identity"
  input: "batch_normalization/moving_variance"
  attr {
    key: "T"
    value {
      type: DT_FLOAT
    }
  }
}
node {
  name: "batch_normalization/batchnorm/add/y"
  op: "Const"
  attr {
    key: "dtype"
    value {
      type: DT_FLOAT
    }
  }
  attr {
    key: "value"
    value {
      tensor {
        dtype: DT_FLOAT
        tensor_shape {
        }
        float_val: 0.0010000000474974513
      }
    }
  }
}
node {
  name: "batch_normalization/batchnorm/add"
  op: "AddV2"
  input: "batch_normalization/batchnorm/ReadVariableOp"
  input: "batch_normalization/batchnorm/add/y"
  attr {
    key: "T"
    value {
      type: DT_FLOAT
    }
  }
}
node {
  name: "batch_normalization/batchnorm/Rsqrt"
  op: "Rsqrt"
  input: "batch_normalization/batchnorm/add"
  attr {
    key: "T"
    value {
      type: DT_FLOAT
    }
  }
}
node {
  name: "batch_normalization/batchnorm/mul/ReadVariableOp"
  op: "Identity"
  input: "batch_normalization/gamma"
  attr {
    key: "T"
    value {
      type: DT_FLOAT
    }
  }
}
node {
  name: "batch_normalization/batchnorm/mul"
  op: "Mul"
  input: "batch_normalization/batchnorm/Rsqrt"
  input: "batch_normalization/batchnorm/mul/ReadVariableOp"
  attr {
    key: "T"
    value {
      type: DT_FLOAT
    }
  }
}
node {
  name: "batch_normalization/batchnorm/mul_1"
  op: "Mul"
  input: "dense/Tanh"
  input: "batch_normalization/batchnorm/mul"
  attr {
    key: "T"
    value {
      type: DT_FLOAT
    }
  }
}
node {
  name: "batch_normalization/batchnorm/ReadVariableOp_1"
  op: "Identity"
  input: "batch_normalization/moving_mean"
  attr {
    key: "T"
    value {
      type: DT_FLOAT
    }
  }
}
node {
  name: "batch_normalization/batchnorm/mul_2"
  op: "Mul"
  input: "batch_normalization/batchnorm/ReadVariableOp_1"
  input: "batch_normalization/batchnorm/mul"
  attr {
    key: "T"
    value {
      type: DT_FLOAT
    }
  }
}
node {
  name: "batch_normalization/batchnorm/ReadVariableOp_2"
  op: "Identity"
  input: "batch_normalization/beta"
  attr {
    key: "T"
    value {
      type: DT_FLOAT
    }
  }
}
node {
  name: "batch_normalization/batchnorm/sub"
  op: "Sub"
  input: "batch_normalization/batchnorm/ReadVariableOp_2"
  input: "batch_normalization/batchnorm/mul_2"
  attr {
    key: "T"
    value {
      type: DT_FLOAT
    }
  }
}
node {
  name: "batch_normalization/batchnorm/add_1"
  op: "AddV2"
  input: "batch_normalization/batchnorm/mul_1"
  input: "batch_normalization/batchnorm/sub"
  attr {
    key: "T"
    value {
      type: DT_FLOAT
    }
  }
}
node {
  name: "dense_1/kernel"
  op: "Const"
  attr {
    key: "dtype"
    value {
      type: DT_FLOAT
    }
  }
  attr {
    key: "value"
    value {
      tensor {
        dtype: DT_FLOAT
        tensor_shape {
          dim {
            size: 50
          }
          dim {
            size: 50
          }
        }
        tensor_content: "…"
      }
    }
  }
}
node {
  name: "dense_1/bias"
  op: "Const"
  attr {
    key: "dtype"
    value {
      type: DT_FLOAT
    }
  }
  attr {
    key: "value"
    value {
      tensor {
        dtype: DT_FLOAT
        tensor_shape {
          dim {
            size: 50
          }
        }
        tensor_content: "…"
      }
    }
  }
}
node {
  name: "dense_1/MatMul/ReadVariableOp"
  op: "Identity"
  input: "dense_1/kernel"
  attr {
    key: "T"
    value {
      type: DT_FLOAT
    }
  }
}
node {
  name: "dense_1/MatMul"
  op: "MatMul"
  input: "batch_normalization/batchnorm/add_1"
  input: "dense_1/MatMul/ReadVariableOp"
  attr {
    key: "T"
    value {
      type: DT_FLOAT
    }
  }
  attr {
    key: "transpose_a"
    value {
      b: false
    }
  }
  attr {
    key: "transpose_b"
    value {
      b: false
    }
  }
}
node {
  name: "dense_1/BiasAdd/ReadVariableOp"
  op: "Identity"
  input: "dense_1/bias"
  attr {
    key: "T"
    value {
      type: DT_FLOAT
    }
  }
}
node {
  name: "dense_1/BiasAdd"
  op: "BiasAdd"
  input: "dense_1/MatMul"
  input: "dense_1/BiasAdd/ReadVariableOp"
  attr {
    key: "T"
    value {
      type: DT_FLOAT
    }
  }
  attr {
    key: "data_format"
    value {
      s: "NHWC"
    }
  }
}
node {
  name: "dense_1/Tanh"
  op: "Tanh"
  input: "dense_1/BiasAdd"
  attr {
    key: "T"
    value {
      type: DT_FLOAT
    }
  }
}
node {
  name: "batch_normalization_1/gamma"
  op: "Const"
  attr {
    key: "dtype"
    value {
      type: DT_FLOAT
    }
  }
  attr {
    key: "value"
    value {
      tensor {
        dtype: DT_FLOAT
        tensor_shape {
          dim {
            size: 50
          }
        }
        tensor_content: "…"
      }
    }
  }
}
node {
  name: "batch_normalization_1/beta"
  op: "Const"
  attr {
    key: "dtype"
    value {
      type: DT_FLOAT
    }
  }
  attr {
    key: "value"
    value {
      tensor {
        dtype: DT_FLOAT
        tensor_shape {
          dim {
            size: 50
          }
        }
        tensor_content: "…"
      }
    }
  }
}
node {
  name: "batch_normalization_1/moving_mean"
  op: "Const"
  attr {
    key: "dtype"
    value {
      type: DT_FLOAT
    }
  }
  attr {
    key: "value"
    value {
      tensor {
        dtype: DT_FLOAT
        tensor_shape {
          dim {
            size: 50
          }
        }
        tensor_content: "…"
      }
    }
  }
}
node {
  name: "batch_normalization_1/moving_variance"
  op: "Const"
  attr {
    key: "dtype"
    value {
      type: DT_FLOAT
    }
  }
  attr {
    key: "value"
    value {
      tensor {
        dtype: DT_FLOAT
        tensor_shape {
          dim {
            size: 50
          }
        }
        tensor_content: "…"
      }
    }
  }
}
node {
  name: "batch_normalization_1/batchnorm/ReadVariableOp"
  op: "Identity"
  input: "batch_normalization_1/moving_variance"
  attr {
    key: "T"
    value {
      type: DT_FLOAT
    }
  }
}
node {
  name: "batch_normalization_1/batchnorm/add/y"
  op: "Const"
  attr {
    key: "dtype"
    value {
      type: DT_FLOAT
    }
  }
  attr {
    key: "value"
    value {
      tensor {
        dtype: DT_FLOAT
        tensor_shape {
        }
        float_val: 0.0010000000474974513
      }
    }
  }
}
node {
  name: "batch_normalization_1/batchnorm/add"
  op: "AddV2"
  input: "batch_normalization_1/batchnorm/ReadVariableOp"
  input: "batch_normalization_1/batchnorm/add/y"
  attr {
    key: "T"
    value {
      type: DT_FLOAT
    }
  }
}
node {
  name: "batch_normalization_1/batchnorm/Rsqrt"
  op: "Rsqrt"
  input: "batch_normalization_1/batchnorm/add"
  attr {
    key: "T"
    value {
      type: DT_FLOAT
    }
  }
}
node {
  name: "batch_normalization_1/batchnorm/mul/ReadVariableOp"
  op: "Identity"
  input: "batch_normalization_1/gamma"
  attr {
    key: "T"
    value {
      type: DT_FLOAT
    }
  }
}
node {
  name: "batch_normalization_1/batchnorm/mul"
  op: "Mul"
  input: "batch_normalization_1/batchnorm/Rsqrt"
  input: "batch_normalization_1/batchnorm/mul/ReadVariableOp"
  attr {
    key: "T"
    value {
      type: DT_FLOAT
    }
  }
}
node {
  name: "batch_normalization_1/batchnorm/mul_1"
  op: "Mul"
  input: "dense_1/Tanh"
  input: "batch_normalization_1/batchnorm/mul"
  attr {
    key: "T"
    value {
      type: DT_FLOAT
    }
  }
}
node {
  name: "batch_normalization_1/batchnorm/ReadVariableOp_1"
  op: "Identity"
  input: "batch_normalization_1/moving_mean"
  attr {
    key: "T"
    value {
      type: DT_FLOAT
    }
  }
}
node {
  name: "batch_normalization_1/batchnorm/mul_2"
  op: "Mul"
  input: "batch_normalization_1/batchnorm/ReadVariableOp_1"
  input: "batch_normalization_1/batchnorm/mul"
  attr {
    key: "T"
    value {
      type: DT_FLOAT
    }
  }
}
node {
  name: "batch_normalization_1/batchnorm/ReadVariableOp_2"
  op: "Identity"
  input: "batch_normalization_1/beta"
  attr {
    key: "T"
    value {
      type: DT_FLOAT
    }
  }
}
node {
  name: "batch_normalization_1/batchnorm/sub"
  op: "Sub"
  input: "batch_normalization_1/batchnorm/ReadVariableOp_2"
  input: "batch_normalization_1/batchnorm/mul_2"
  attr {
    key: "T"
    value {
      type: DT_FLOAT
    }
  }
}
node {
  name: "batch_normalization_1/batchnorm/add_1"
  op: "AddV2"
  input: "batch_normalization_1/batchnorm/mul_1"
  input: "batch_normalization_1/batchnorm/sub"
  attr {
    key: "T"
    value {
      type: DT_FLOAT
    }
  }
}
node {
  name: "dense_2/kernel"
  op: "Const"
  attr {
    key: "dtype"
    value {
      type: DT_FLOAT
    }
  }
  attr {
    key: "value"
    value {
      tensor {
        dtype: DT_FLOAT
        tensor_shape {
          dim {
            size: 50
          }
          dim {
            size: 50
          }
        }
        tensor_content: "…"
      }
    }
  }
}
node {
  name: "dense_2/bias"
  op: "Const"
  attr {
    key: "dtype"
    value {
      type: DT_FLOAT
    }
  }
  attr {
    key: "value"
    value {
      tensor {
        dtype: DT_FLOAT
        tensor_shape {
          dim {
            size: 50
          }
        }
        tensor_content: "…"
      }
    }
  }
}
node {
  name: "dense_2/MatMul/ReadVariableOp"
  op: "Identity"
  input: "dense_2/kernel"
  attr {
    key: "T"
    value {
      type: DT_FLOAT
    }
  }
}
node {
  name: "dense_2/MatMul"
  op: "MatMul"
  input: "batch_normalization_1/batchnorm/add_1"
  input: "dense_2/MatMul/ReadVariableOp"
  attr {
    key: "T"
    value {
      type: DT_FLOAT
    }
  }
  attr {
    key: "transpose_a"
    value {
      b: false
    }
  }
  attr {
    key: "transpose_b"
    value {
      b: false
    }
  }
}
node {
  name: "dense_2/BiasAdd/ReadVariableOp"
  op: "Identity"
  input: "dense_2/bias"
  attr {
    key: "T"
    value {
      type: DT_FLOAT
    }
  }
}
node {
  name: "dense_2/BiasAdd"
  op: "BiasAdd"
  input: "dense_2/MatMul"
  input: "dense_2/BiasAdd/ReadVariableOp"
  attr {
    key: "T"
    value {
      type: DT_FLOAT
    }
  }
  attr {
    key: "data_format"
    value {
      s: "NHWC"
    }
  }
}
node {
  name: "dense_2/Tanh"
  op: "Tanh"
  input: "dense_2/BiasAdd"
  attr {
    key: "T"
    value {
      type: DT_FLOAT
    }
  }
}
node {
  name: "batch_normalization_2/gamma"
  op: "Const"
  attr {
    key: "dtype"
    value {
      type: DT_FLOAT
    }
  }
  attr {
    key: "value"
    value {
      tensor {
        dtype: DT_FLOAT
        tensor_shape {
          dim {
            size: 50
          }
        }
        tensor_content: "…"
      }
    }
  }
}
node {
  name: "batch_normalization_2/beta"
  op: "Const"
  attr {
    key: "dtype"
    value {
      type: DT_FLOAT
    }
  }
  attr {
    key: "value"
    value {
      tensor {
        dtype: DT_FLOAT
        tensor_shape {
          dim {
            size: 50
          }
        }
        tensor_content: "…"
      }
    }
  }
}
node {
  name: "batch_normalization_2/moving_mean"
  op: "Const"
  attr {
    key: "dtype"
    value {
      type: DT_FLOAT
    }
  }
  attr {
    key: "value"
    value {
      tensor {
        dtype: DT_FLOAT
        tensor_shape {
          dim {
            size: 50
          }
        }
        tensor_content: "…"
      }
    }
  }
}
node {
  name: "batch_normalization_2/moving_variance"
  op: "Const"
  attr {
    key: "dtype"
    value {
      type: DT_FLOAT
    }
  }
  attr {
    key: "value"
    value {
      tensor {
        dtype: DT_FLOAT
        tensor_shape {
          dim {
            size: 50
          }
        }
        tensor_content: "…"
      }
    }
  }
}
node {
  name: "batch_normalization_2/batchnorm/ReadVariableOp"
  op: "Identity"
  input: "batch_normalization_2/moving_variance"
  attr {
    key: "T"
    value {
      type: DT_FLOAT
    }
  }
}
node {
  name: "batch_normalization_2/batchnorm/add/y"
  op: "Const"
  attr {
    key: "dtype"
    value {
      type: DT_FLOAT
    }
  }
  attr {
    key: "value"
    value {
      tensor {
        dtype: DT_FLOAT
        tensor_shape {
        }
        float_val: 0.0010000000474974513
      }
    }
  }
}
node {
  name: "batch_normalization_2/batchnorm/add"
  op: "AddV2"
  input: "batch_normalization_2/batchnorm/ReadVariableOp"
  input: "batch_normalization_2/batchnorm/add/y"
  attr {
    key: "T"
    value {
      type: DT_FLOAT
    }
  }
}
node {
  name: "batch_normalization_2/batchnorm/Rsqrt"
  op: "Rsqrt"
  input: "batch_normalization_2/batchnorm/add"
  attr {
    key: "T"
    value {
      type: DT_FLOAT
    }
  }
}
node {
  name: "batch_normalization_2/batchnorm/mul/ReadVariableOp"
  op: "Identity"
  input: "batch_normalization_2/gamma"
  attr {
    key: "T"
    value {
      type: DT_FLOAT
    }
  }
}
node {
  name: "batch_normalization_2/batchnorm/mul"
  op: "Mul"
  input: "batch_normalization_2/batchnorm/Rsqrt"
  input: "batch_normalization_2/batchnorm/mul/ReadVariableOp"
  attr {
    key: "T"
    value {
      type: DT_FLOAT
    }
  }
}
node {
  name: "batch_normalization_2/batchnorm/mul_1"
  op: "Mul"
  input: "dense_2/Tanh"
  input: "batch_normalization_2/batchnorm/mul"
  attr {
    key: "T"
    value {
      type: DT_FLOAT
    }
  }
}
node {
  name: "batch_normalization_2/batchnorm/ReadVariableOp_1"
  op: "Identity"
  input: "batch_normalization_2/moving_mean"
  attr {
    key: "T"
    value {
      type: DT_FLOAT
    }
  }
}
node {
  name: "batch_normalization_2/batchnorm/mul_2"
  op: "Mul"
  input: "batch_normalization_2/batchnorm/ReadVariableOp_1"
  input: "batch_normalization_2/batchnorm/mul"
  attr {
    key: "T"
    value {
      type: DT_FLOAT
    }
  }
}
node {
  name: "batch_normalization_2/batchnorm/ReadVariableOp_2"
  op: "Identity"
  input: "batch_normalization_2/beta"
  attr {
    key: "T"
    value {
      type: DT_FLOAT
    }
  }
}
node {
  name: "batch_normalization_2/batchnorm/sub"
  op: "Sub"
  input: "batch_normalization_2/batchnorm/ReadVariableOp_2"
  input: "batch_normalization_2/batchnorm/mul_2"
  attr {
    key: "T"
    value {
      type: DT_FLOAT
    }
  }
}
node {
  name: "batch_normalization_2/batchnorm/add_1"
  op: "AddV2"
  input: "batch_normalization_2/batchnorm/mul_1"
  input: "batch_normalization_2/batchnorm/sub"
  attr {
    key: "T"
    value {
      type: DT_FLOAT
    }
  }
}
node {
  name: "likelihood_ratio/kernel"
  op: "Const"
  attr {
    key: "dtype"
    value {
      type: DT_FLOAT
    }
  }
  attr {
    key: "value"
    value {
      tensor {
        dtype: DT_FLOAT
        tensor_shape {
          dim {
            size: 50
          }
          dim {
            size: 1
          }
        }
        tensor_content: "…"
      }
    }
  }
}
node {
  name: "likelihood_ratio/bias"
  op: "Const"
  attr {
    key: "dtype"
    value {
      type: DT_FLOAT
    }
  }
  attr {
    key: "value"
    value {
      tensor {
        dtype: DT_FLOAT
        tensor_shape {
          dim {
            size: 1
          }
        }
        float_val: 0.0048691569827497005
      }
    }
  }
}
node {
  name: "likelihood_ratio/MatMul/ReadVariableOp"
  op: "Identity"
  input: "likelihood_ratio/kernel"
  attr {
    key: "T"
    value {
      type: DT_FLOAT
    }
  }
}
node {
  name: "likelihood_ratio/MatMul"
  op: "MatMul"
  input: "batch_normalization_2/batchnorm/add_1"
  input: "likelihood_ratio/MatMul/ReadVariableOp"
  attr {
    key: "T"
    value {
      type: DT_FLOAT
    }
  }
  attr {
    key: "transpose_a"
    value {
      b: false
    }
  }
  attr {
    key: "transpose_b"
    value {
      b: false
    }
  }
}
node {
  name: "likelihood_ratio/BiasAdd/ReadVariableOp"
  op: "Identity"
  input: "likelihood_ratio/bias"
  attr {
    key: "T"
    value {
      type: DT_FLOAT
    }
  }
}
node {
  name: "likelihood_ratio/BiasAdd"
  op: "BiasAdd"
  input: "likelihood_ratio/MatMul"
  input: "likelihood_ratio/BiasAdd/ReadVariableOp"
  attr {
    key: "T"
    value {
      type: DT_FLOAT
    }
  }
  attr {
    key: "data_format"
    value {
      s: "NHWC"
    }
  }
}
node {
  name: "log/Log"
  op: "Log"
  input: "likelihood_ratio/BiasAdd"
  attr {
    key: "T"
    value {
      type: DT_FLOAT
    }
  }
}
node {
  name: "MYOUTPUT/kernel"
  op: "Const"
  attr {
    key: "dtype"
    value {
      type: DT_FLOAT
    }
  }
  attr {
    key: "value"
    value {
      tensor {
        dtype: DT_FLOAT
        tensor_shape {
          dim {
            size: 50
          }
          dim {
            size: 1
          }
        }
        tensor_content: "…"
      }
    }
  }
}
node {
  name: "MYOUTPUT/bias"
  op: "Const"
  attr {
    key: "dtype"
    value {
      type: DT_FLOAT
    }
  }
  attr {
    key: "value"
    value {
      tensor {
        dtype: DT_FLOAT
        tensor_shape {
          dim {
            size: 1
          }
        }
        float_val: -0.13732092082500458
      }
    }
  }
}
node {
  name: "MYOUTPUT/MatMul/ReadVariableOp"
  op: "Identity"
  input: "MYOUTPUT/kernel"
  attr {
    key: "T"
    value {
      type: DT_FLOAT
    }
  }
}
node {
  name: "MYOUTPUT/MatMul"
  op: "MatMul"
  input: "batch_normalization_2/batchnorm/add_1"
  input: "MYOUTPUT/MatMul/ReadVariableOp"
  attr {
    key: "T"
    value {
      type: DT_FLOAT
    }
  }
  attr {
    key: "transpose_a"
    value {
      b: false
    }
  }
  attr {
    key: "transpose_b"
    value {
      b: false
    }
  }
}
node {
  name: "MYOUTPUT/BiasAdd/ReadVariableOp"
  op: "Identity"
  input: "MYOUTPUT/bias"
  attr {
    key: "T"
    value {
      type: DT_FLOAT
    }
  }
}
node {
  name: "MYOUTPUT/BiasAdd"
  op: "BiasAdd"
  input: "MYOUTPUT/MatMul"
  input: "MYOUTPUT/BiasAdd/ReadVariableOp"
  attr {
    key: "T"
    value {
      type: DT_FLOAT
    }
  }
  attr {
    key: "data_format"
    value {
      s: "NHWC"
    }
  }
}
node {
  name: "MYOUTPUT/Sigmoid"
  op: "Sigmoid"
  input: "MYOUTPUT/BiasAdd"
  attr {
    key: "T"
    value {
      type: DT_FLOAT
    }
  }
}
node {
  name: "score/gradients/Shape"
  op: "Shape"
  input: "log/Log"
  attr {
    key: "T"
    value {
      type: DT_FLOAT
    }
  }
  attr {
    key: "_class"
    value {
      list {
        s: "loc:@log/Log"
      }
    }
  }
  attr {
    key: "out_type"
    value {
      type: DT_INT32
    }
  }
}
node {
  name: "score/gradients/grad_ys_0"
  op: "Const"
  attr {
    key: "_class"
    value {
      list {
        s: "loc:@log/Log"
      }
    }
  }
  attr {
    key: "dtype"
    value {
      type: DT_FLOAT
    }
  }
  attr {
    key: "value"
    value {
      tensor {
        dtype: DT_FLOAT
        tensor_shape {
        }
        float_val: 1.0
      }
    }
  }
}
node {
  name: "score/gradients/Fill"
  op: "Fill"
  input: "score/gradients/Shape"
  input: "score/gradients/grad_ys_0"
  attr {
    key: "T"
    value {
      type: DT_FLOAT
    }
  }
  attr {
    key: "_class"
    value {
      list {
        s: "loc:@log/Log"
      }
    }
  }
  attr {
    key: "index_type"
    value {
      type: DT_INT32
    }
  }
}
node {
  name: "score/gradients/log/Log_grad/Reciprocal"
  op: "Reciprocal"
  input: "likelihood_ratio/BiasAdd"
  input: "^score/gradients/Fill"
  attr {
    key: "T"
    value {
      type: DT_FLOAT
    }
  }
  attr {
    key: "_class"
    value {
      list {
        s: "loc:@log/Log"
      }
    }
  }
}
node {
  name: "score/gradients/log/Log_grad/mul"
  op: "Mul"
  input: "score/gradients/Fill"
  input: "score/gradients/log/Log_grad/Reciprocal"
  attr {
    key: "T"
    value {
      type: DT_FLOAT
    }
  }
  attr {
    key: "_class"
    value {
      list {
        s: "loc:@log/Log"
      }
    }
  }
}
node {
  name: "score/gradients/likelihood_ratio/MatMul_grad/MatMul"
  op: "MatMul"
  input: "score/gradients/log/Log_grad/mul"
  input: "likelihood_ratio/MatMul/ReadVariableOp"
  attr {
    key: "T"
    value {
      type: DT_FLOAT
    }
  }
  attr {
    key: "_class"
    value {
      list {
        s: "loc:@likelihood_ratio/MatMul"
      }
    }
  }
  attr {
    key: "transpose_a"
    value {
      b: false
    }
  }
  attr {
    key: "transpose_b"
    value {
      b: true
    }
  }
}
node {
  name: "score/gradients/batch_normalization_2/batchnorm/add_1_grad/Shape"
  op: "Shape"
  input: "batch_normalization_2/batchnorm/mul_1"
  attr {
    key: "T"
    value {
      type: DT_FLOAT
    }
  }
  attr {
    key: "_class"
    value {
      list {
        s: "loc:@batch_normalization_2/batchnorm/add_1"
      }
    }
  }
  attr {
    key: "out_type"
    value {
      type: DT_INT32
    }
  }
}
node {
  name: "score/gradients/batch_normalization_2/batchnorm/add_1_grad/Shape_1"
  op: "Shape"
  input: "batch_normalization_2/batchnorm/sub"
  attr {
    key: "T"
    value {
      type: DT_FLOAT
    }
  }
  attr {
    key: "_class"
    value {
      list {
        s: "loc:@batch_normalization_2/batchnorm/add_1"
      }
    }
  }
  attr {
    key: "out_type"
    value {
      type: DT_INT32
    }
  }
}
node {
  name: "score/gradients/batch_normalization_2/batchnorm/add_1_grad/BroadcastGradientArgs"
  op: "BroadcastGradientArgs"
  input: "score/gradients/batch_normalization_2/batchnorm/add_1_grad/Shape"
  input: "score/gradients/batch_normalization_2/batchnorm/add_1_grad/Shape_1"
  attr {
    key: "T"
    value {
      type: DT_INT32
    }
  }
  attr {
    key: "_class"
    value {
      list {
        s: "loc:@batch_normalization_2/batchnorm/add_1"
      }
    }
  }
}
node {
  name: "score/gradients/batch_normalization_2/batchnorm/add_1_grad/Sum"
  op: "Sum"
  input: "score/gradients/likelihood_ratio/MatMul_grad/MatMul"
  input: "score/gradients/batch_normalization_2/batchnorm/add_1_grad/BroadcastGradientArgs"
  attr {
    key: "T"
    value {
      type: DT_FLOAT
    }
  }
  attr {
    key: "Tidx"
    value {
      type: DT_INT32
    }
  }
  attr {
    key: "_class"
    value {
      list {
        s: "loc:@batch_normalization_2/batchnorm/add_1"
      }
    }
  }
  attr {
    key: "keep_dims"
    value {
      b: false
    }
  }
}
node {
  name: "score/gradients/batch_normalization_2/batchnorm/add_1_grad/Reshape"
  op: "Reshape"
  input: "score/gradients/batch_normalization_2/batchnorm/add_1_grad/Sum"
  input: "score/gradients/batch_normalization_2/batchnorm/add_1_grad/Shape"
  attr {
    key: "T"
    value {
      type: DT_FLOAT
    }
  }
  attr {
    key: "Tshape"
    value {
      type: DT_INT32
    }
  }
  attr {
    key: "_class"
    value {
      list {
        s: "loc:@batch_normalization_2/batchnorm/add_1"
      }
    }
  }
}
node {
  name: "score/gradients/batch_normalization_2/batchnorm/mul_1_grad/Shape"
  op: "Shape"
  input: "dense_2/Tanh"
  attr {
    key: "T"
    value {
      type: DT_FLOAT
    }
  }
  attr {
    key: "_class"
    value {
      list {
        s: "loc:@batch_normalization_2/batchnorm/mul_1"
      }
    }
  }
  attr {
    key: "out_type"
    value {
      type: DT_INT32
    }
  }
}
node {
  name: "score/gradients/batch_normalization_2/batchnorm/mul_1_grad/Shape_1"
  op: "Shape"
  input: "batch_normalization_2/batchnorm/mul"
  attr {
    key: "T"
    value {
      type: DT_FLOAT
    }
  }
  attr {
    key: "_class"
    value {
      list {
        s: "loc:@batch_normalization_2/batchnorm/mul_1"
      }
    }
  }
  attr {
    key: "out_type"
    value {
      type: DT_INT32
    }
  }
}
node {
  name: "score/gradients/batch_normalization_2/batchnorm/mul_1_grad/BroadcastGradientArgs"
  op: "BroadcastGradientArgs"
  input: "score/gradients/batch_normalization_2/batchnorm/mul_1_grad/Shape"
  input: "score/gradients/batch_normalization_2/batchnorm/mul_1_grad/Shape_1"
  attr {
    key: "T"
    value {
      type: DT_INT32
    }
  }
  attr {
    key: "_class"
    value {
      list {
        s: "loc:@batch_normalization_2/batchnorm/mul_1"
      }
    }
  }
}
node {
  name: "score/gradients/batch_normalization_2/batchnorm/mul_1_grad/Mul"
  op: "Mul"
  input: "score/gradients/batch_normalization_2/batchnorm/add_1_grad/Reshape"
  input: "batch_normalization_2/batchnorm/mul"
  attr {
    key: "T"
    value {
      type: DT_FLOAT
    }
  }
  attr {
    key: "_class"
    value {
      list {
        s: "loc:@batch_normalization_2/batchnorm/mul_1"
      }
    }
  }
}
node {
  name: "score/gradients/batch_normalization_2/batchnorm/mul_1_grad/Sum"
  op: "Sum"
  input: "score/gradients/batch_normalization_2/batchnorm/mul_1_grad/Mul"
  input: "score/gradients/batch_normalization_2/batchnorm/mul_1_grad/BroadcastGradientArgs"
  attr {
    key: "T"
    value {
      type: DT_FLOAT
    }
  }
  attr {
    key: "Tidx"
    value {
      type: DT_INT32
    }
  }
  attr {
    key: "_class"
    value {
      list {
        s: "loc:@batch_normalization_2/batchnorm/mul_1"
      }
    }
  }
  attr {
    key: "keep_dims"
    value {
      b: false
    }
  }
}
node {
  name: "score/gradients/batch_normalization_2/batchnorm/mul_1_grad/Reshape"
  op: "Reshape"
  input: "score/gradients/batch_normalization_2/batchnorm/mul_1_grad/Sum"
  input: "score/gradients/batch_normalization_2/batchnorm/mul_1_grad/Shape"
  attr {
    key: "T"
    value {
      type: DT_FLOAT
    }
  }
  attr {
    key: "Tshape"
    value {
      type: DT_INT32
    }
  }
  attr {
    key: "_class"
    value {
      list {
        s: "loc:@batch_normalization_2/batchnorm/mul_1"
      }
    }
  }
}
node {
  name: "score/gradients/dense_2/Tanh_grad/TanhGrad"
  op: "TanhGrad"
  input: "dense_2/Tanh"
  input: "score/gradients/batch_normalization_2/batchnorm/mul_1_grad/Reshape"
  attr {
    key: "T"
    value {
      type: DT_FLOAT
    }
  }
  attr {
    key: "_class"
    value {
      list {
        s: "loc:@dense_2/Tanh"
      }
    }
  }
}
node {
  name: "score/gradients/dense_2/MatMul_grad/MatMul"
  op: "MatMul"
  input: "score/gradients/dense_2/Tanh_grad/TanhGrad"
  input: "dense_2/MatMul/ReadVariableOp"
  attr {
    key: "T"
    value {
      type: DT_FLOAT
    }
  }
  attr {
    key: "_class"
    value {
      list {
        s: "loc:@dense_2/MatMul"
      }
    }
  }
  attr {
    key: "transpose_a"
    value {
      b: false
    }
  }
  attr {
    key: "transpose_b"
    value {
      b: true
    }
  }
}
node {
  name: "score/gradients/batch_normalization_1/batchnorm/add_1_grad/Shape"
  op: "Shape"
  input: "batch_normalization_1/batchnorm/mul_1"
  attr {
    key: "T"
    value {
      type: DT_FLOAT
    }
  }
  attr {
    key: "_class"
    value {
      list {
        s: "loc:@batch_normalization_1/batchnorm/add_1"
      }
    }
  }
  attr {
    key: "out_type"
    value {
      type: DT_INT32
    }
  }
}
node {
  name: "score/gradients/batch_normalization_1/batchnorm/add_1_grad/Shape_1"
  op: "Shape"
  input: "batch_normalization_1/batchnorm/sub"
  attr {
    key: "T"
    value {
      type: DT_FLOAT
    }
  }
  attr {
    key: "_class"
    value {
      list {
        s: "loc:@batch_normalization_1/batchnorm/add_1"
      }
    }
  }
  attr {
    key: "out_type"
    value {
      type: DT_INT32
    }
  }
}
node {
  name: "score/gradients/batch_normalization_1/batchnorm/add_1_grad/BroadcastGradientArgs"
  op: "BroadcastGradientArgs"
  input: "score/gradients/batch_normalization_1/batchnorm/add_1_grad/Shape"
  input: "score/gradients/batch_normalization_1/batchnorm/add_1_grad/Shape_1"
  attr {
    key: "T"
    value {
      type: DT_INT32
    }
  }
  attr {
    key: "_class"
    value {
      list {
        s: "loc:@batch_normalization_1/batchnorm/add_1"
      }
    }
  }
}
node {
  name: "score/gradients/batch_normalization_1/batchnorm/add_1_grad/Sum"
  op: "Sum"
  input: "score/gradients/dense_2/MatMul_grad/MatMul"
  input: "score/gradients/batch_normalization_1/batchnorm/add_1_grad/BroadcastGradientArgs"
  attr {
    key: "T"
    value {
      type: DT_FLOAT
    }
  }
  attr {
    key: "Tidx"
    value {
      type: DT_INT32
    }
  }
  attr {
    key: "_class"
    value {
      list {
        s: "loc:@batch_normalization_1/batchnorm/add_1"
      }
    }
  }
  attr {
    key: "keep_dims"
    value {
      b: false
    }
  }
}
node {
  name: "score/gradients/batch_normalization_1/batchnorm/add_1_grad/Reshape"
  op: "Reshape"
  input: "score/gradients/batch_normalization_1/batchnorm/add_1_grad/Sum"
  input: "score/gradients/batch_normalization_1/batchnorm/add_1_grad/Shape"
  attr {
    key: "T"
    value {
      type: DT_FLOAT
    }
  }
  attr {
    key: "Tshape"
    value {
      type: DT_INT32
    }
  }
  attr {
    key: "_class"
    value {
      list {
        s: "loc:@batch_normalization_1/batchnorm/add_1"
      }
    }
  }
}
node {
  name: "score/gradients/batch_normalization_1/batchnorm/mul_1_grad/Shape"
  op: "Shape"
  input: "dense_1/Tanh"
  attr {
    key: "T"
    value {
      type: DT_FLOAT
    }
  }
  attr {
    key: "_class"
    value {
      list {
        s: "loc:@batch_normalization_1/batchnorm/mul_1"
      }
    }
  }
  attr {
    key: "out_type"
    value {
      type: DT_INT32
    }
  }
}
node {
  name: "score/gradients/batch_normalization_1/batchnorm/mul_1_grad/Shape_1"
  op: "Shape"
  input: "batch_normalization_1/batchnorm/mul"
  attr {
    key: "T"
    value {
      type: DT_FLOAT
    }
  }
  attr {
    key: "_class"
    value {
      list {
        s: "loc:@batch_normalization_1/batchnorm/mul_1"
      }
    }
  }
  attr {
    key: "out_type"
    value {
      type: DT_INT32
    }
  }
}
node {
  name: "score/gradients/batch_normalization_1/batchnorm/mul_1_grad/BroadcastGradientArgs"
  op: "BroadcastGradientArgs"
  input: "score/gradients/batch_normalization_1/batchnorm/mul_1_grad/Shape"
  input: "score/gradients/batch_normalization_1/batchnorm/mul_1_grad/Shape_1"
  attr {
    key: "T"
    value {
      type: DT_INT32
    }
  }
  attr {
    key: "_class"
    value {
      list {
        s: "loc:@batch_normalization_1/batchnorm/mul_1"
      }
    }
  }
}
node {
  name: "score/gradients/batch_normalization_1/batchnorm/mul_1_grad/Mul"
  op: "Mul"
  input: "score/gradients/batch_normalization_1/batchnorm/add_1_grad/Reshape"
  input: "batch_normalization_1/batchnorm/mul"
  attr {
    key: "T"
    value {
      type: DT_FLOAT
    }
  }
  attr {
    key: "_class"
    value {
      list {
        s: "loc:@batch_normalization_1/batchnorm/mul_1"
      }
    }
  }
}
node {
  name: "score/gradients/batch_normalization_1/batchnorm/mul_1_grad/Sum"
  op: "Sum"
  input: "score/gradients/batch_normalization_1/batchnorm/mul_1_grad/Mul"
  input: "score/gradients/batch_normalization_1/batchnorm/mul_1_grad/BroadcastGradientArgs"
  attr {
    key: "T"
    value {
      type: DT_FLOAT
    }
  }
  attr {
    key: "Tidx"
    value {
      type: DT_INT32
    }
  }
  attr {
    key: "_class"
    value {
      list {
        s: "loc:@batch_normalization_1/batchnorm/mul_1"
      }
    }
  }
  attr {
    key: "keep_dims"
    value {
      b: false
    }
  }
}
node {
  name: "score/gradients/batch_normalization_1/batchnorm/mul_1_grad/Reshape"
  op: "Reshape"
  input: "score/gradients/batch_normalization_1/batchnorm/mul_1_grad/Sum"
  input: "score/gradients/batch_normalization_1/batchnorm/mul_1_grad/Shape"
  attr {
    key: "T"
    value {
      type: DT_FLOAT
    }
  }
  attr {
    key: "Tshape"
    value {
      type: DT_INT32
    }
  }
  attr {
    key: "_class"
    value {
      list {
        s: "loc:@batch_normalization_1/batchnorm/mul_1"
      }
    }
  }
}
node {
  name: "score/gradients/dense_1/Tanh_grad/TanhGrad"
  op: "TanhGrad"
  input: "dense_1/Tanh"
  input: "score/gradients/batch_normalization_1/batchnorm/mul_1_grad/Reshape"
  attr {
    key: "T"
    value {
      type: DT_FLOAT
    }
  }
  attr {
    key: "_class"
    value {
      list {
        s: "loc:@dense_1/Tanh"
      }
    }
  }
}
node {
  name: "score/gradients/dense_1/MatMul_grad/MatMul"
  op: "MatMul"
  input: "score/gradients/dense_1/Tanh_grad/TanhGrad"
  input: "dense_1/MatMul/ReadVariableOp"
  attr {
    key: "T"
    value {
      type: DT_FLOAT
    }
  }
  attr {
    key: "_class"
    value {
      list {
        s: "loc:@dense_1/MatMul"
      }
    }
  }
  attr {
    key: "transpose_a"
    value {
      b: false
    }
  }
  attr {
    key: "transpose_b"
    value {
      b: true
    }
  }
}
node {
  name: "score/gradients/batch_normalization/batchnorm/add_1_grad/Shape"
  op: "Shape"
  input: "batch_normalization/batchnorm/mul_1"
  attr {
    key: "T"
    value {
      type: DT_FLOAT
    }
  }
  attr {
    key: "_class"
    value {
      list {
        s: "loc:@batch_normalization/batchnorm/add_1"
      }
    }
  }
  attr {
    key: "out_type"
    value {
      type: DT_INT32
    }
  }
}
node {
  name: "score/gradients/batch_normalization/batchnorm/add_1_grad/Shape_1"
  op: "Shape"
  input: "batch_normalization/batchnorm/sub"
  attr {
    key: "T"
    value {
      type: DT_FLOAT
    }
  }
  attr {
    key: "_class"
    value {
      list {
        s: "loc:@batch_normalization/batchnorm/add_1"
      }
    }
  }
  attr {
    key: "out_type"
    value {
      type: DT_INT32
    }
  }
}
node {
  name: "score/gradients/batch_normalization/batchnorm/add_1_grad/BroadcastGradientArgs"
  op: "BroadcastGradientArgs"
  input: "score/gradients/batch_normalization/batchnorm/add_1_grad/Shape"
  input: "score/gradients/batch_normalization/batchnorm/add_1_grad/Shape_1"
  attr {
    key: "T"
    value {
      type: DT_INT32
    }
  }
  attr {
    key: "_class"
    value {
      list {
        s: "loc:@batch_normalization/batchnorm/add_1"
      }
    }
  }
}
node {
  name: "score/gradients/batch_normalization/batchnorm/add_1_grad/Sum"
  op: "Sum"
  input: "score/gradients/dense_1/MatMul_grad/MatMul"
  input: "score/gradients/batch_normalization/batchnorm/add_1_grad/BroadcastGradientArgs"
  attr {
    key: "T"
    value {
      type: DT_FLOAT
    }
  }
  attr {
    key: "Tidx"
    value {
      type: DT_INT32
    }
  }
  attr {
    key: "_class"
    value {
      list {
        s: "loc:@batch_normalization/batchnorm/add_1"
      }
    }
  }
  attr {
    key: "keep_dims"
    value {
      b: false
    }
  }
}
node {
  name: "score/gradients/batch_normalization/batchnorm/add_1_grad/Reshape"
  op: "Reshape"
  input: "score/gradients/batch_normalization/batchnorm/add_1_grad/Sum"
  input: "score/gradients/batch_normalization/batchnorm/add_1_grad/Shape"
  attr {
    key: "T"
    value {
      type: DT_FLOAT
    }
  }
  attr {
    key: "Tshape"
    value {
      type: DT_INT32
    }
  }
  attr {
    key: "_class"
    value {
      list {
        s: "loc:@batch_normalization/batchnorm/add_1"
      }
    }
  }
}
node {
  name: "score/gradients/batch_normalization/batchnorm/mul_1_grad/Shape"
  op: "Shape"
  input: "dense/Tanh"
  attr {
    key: "T"
    value {
      type: DT_FLOAT
    }
  }
  attr {
    key: "_class"
    value {
      list {
        s: "loc:@batch_normalization/batchnorm/mul_1"
      }
    }
  }
  attr {
    key: "out_type"
    value {
      type: DT_INT32
    }
  }
}
node {
  name: "score/gradients/batch_normalization/batchnorm/mul_1_grad/Shape_1"
  op: "Shape"
  input: "batch_normalization/batchnorm/mul"
  attr {
    key: "T"
    value {
      type: DT_FLOAT
    }
  }
  attr {
    key: "_class"
    value {
      list {
        s: "loc:@batch_normalization/batchnorm/mul_1"
      }
    }
  }
  attr {
    key: "out_type"
    value {
      type: DT_INT32
    }
  }
}
node {
  name: "score/gradients/batch_normalization/batchnorm/mul_1_grad/BroadcastGradientArgs"
  op: "BroadcastGradientArgs"
  input: "score/gradients/batch_normalization/batchnorm/mul_1_grad/Shape"
  input: "score/gradients/batch_normalization/batchnorm/mul_1_grad/Shape_1"
  attr {
    key: "T"
    value {
      type: DT_INT32
    }
  }
  attr {
    key: "_class"
    value {
      list {
        s: "loc:@batch_normalization/batchnorm/mul_1"
      }
    }
  }
}
node {
  name: "score/gradients/batch_normalization/batchnorm/mul_1_grad/Mul"
  op: "Mul"
  input: "score/gradients/batch_normalization/batchnorm/add_1_grad/Reshape"
  input: "batch_normalization/batchnorm/mul"
  attr {
    key: "T"
    value {
      type: DT_FLOAT
    }
  }
  attr {
    key: "_class"
    value {
      list {
        s: "loc:@batch_normalization/batchnorm/mul_1"
      }
    }
  }
}
node {
  name: "score/gradients/batch_normalization/batchnorm/mul_1_grad/Sum"
  op: "Sum"
  input: "score/gradients/batch_normalization/batchnorm/mul_1_grad/Mul"
  input: "score/gradients/batch_normalization/batchnorm/mul_1_grad/BroadcastGradientArgs"
  attr {
    key: "T"
    value {
      type: DT_FLOAT
    }
  }
  attr {
    key: "Tidx"
    value {
      type: DT_INT32
    }
  }
  attr {
    key: "_class"
    value {
      list {
        s: "loc:@batch_normalization/batchnorm/mul_1"
      }
    }
  }
  attr {
    key: "keep_dims"
    value {
      b: false
    }
  }
}
node {
  name: "score/gradients/batch_normalization/batchnorm/mul_1_grad/Reshape"
  op: "Reshape"
  input: "score/gradients/batch_normalization/batchnorm/mul_1_grad/Sum"
  input: "score/gradients/batch_normalization/batchnorm/mul_1_grad/Shape"
  attr {
    key: "T"
    value {
      type: DT_FLOAT
    }
  }
  attr {
    key: "Tshape"
    value {
      type: DT_INT32
    }
  }
  attr {
    key: "_class"
    value {
      list {
        s: "loc:@batch_normalization/batchnorm/mul_1"
      }
    }
  }
}
node {
  name: "score/gradients/dense/Tanh_grad/TanhGrad"
  op: "TanhGrad"
  input: "dense/Tanh"
  input: "score/gradients/batch_normalization/batchnorm/mul_1_grad/Reshape"
  attr {
    key: "T"
    value {
      type: DT_FLOAT
    }
  }
  attr {
    key: "_class"
    value {
      list {
        s: "loc:@dense/Tanh"
      }
    }
  }
}
node {
  name: "score/gradients/dense/MatMul_grad/MatMul"
  op: "MatMul"
  input: "score/gradients/dense/Tanh_grad/TanhGrad"
  input: "dense/MatMul/ReadVariableOp"
  attr {
    key: "T"
    value {
      type: DT_FLOAT
    }
  }
  attr {
    key: "_class"
    value {
      list {
        s: "loc:@dense/MatMul"
      }
    }
  }
  attr {
    key: "transpose_a"
    value {
      b: false
    }
  }
  attr {
    key: "transpose_b"
    value {
      b: true
    }
  }
}
node {
  name: "score/gradients/dense/Cast_grad/Cast"
  op: "Cast"
  input: "score/gradients/dense/MatMul_grad/MatMul"
  attr {
    key: "DstT"
    value {
      type: DT_DOUBLE
    }
  }
  attr {
    key: "SrcT"
    value {
      type: DT_FLOAT
    }
  }
  attr {
    key: "Truncate"
    value {
      b: false
    }
  }
  attr {
    key: "_class"
    value {
      list {
        s: "loc:@dense/Cast"
      }
    }
  }
}
node {
  name: "score/gradients/Feature_normalization/truediv_grad/Shape"
  op: "Shape"
  input: "Feature_normalization/sub"
  attr {
    key: "T"
    value {
      type: DT_DOUBLE
    }
  }
  attr {
    key: "_class"
    value {
      list {
        s: "loc:@Feature_normalization/truediv"
      }
    }
  }
  attr {
    key: "out_type"
    value {
      type: DT_INT32
    }
  }
}
node {
  name: "score/gradients/Feature_normalization/truediv_grad/Shape_1"
  op: "Const"
  attr {
    key: "_class"
    value {
      list {
        s: "loc:@Feature_normalization/truediv"
      }
    }
  }
  attr {
    key: "dtype"
    value {
      type: DT_INT32
    }
  }
  attr {
    key: "value"
    value {
      tensor {
        dtype: DT_INT32
        tensor_shape {
          dim {
            size: 1
          }
        }
        int_val: 10
      }
    }
  }
}
node {
  name: "score/gradients/Feature_normalization/truediv_grad/BroadcastGradientArgs"
  op: "BroadcastGradientArgs"
  input: "score/gradients/Feature_normalization/truediv_grad/Shape"
  input: "score/gradients/Feature_normalization/truediv_grad/Shape_1"
  attr {
    key: "T"
    value {
      type: DT_INT32
    }
  }
  attr {
    key: "_class"
    value {
      list {
        s: "loc:@Feature_normalization/truediv"
      }
    }
  }
}
node {
  name: "score/gradients/Feature_normalization/truediv_grad/RealDiv"
  op: "RealDiv"
  input: "score/gradients/dense/Cast_grad/Cast"
  input: "Feature_normalization/truediv/y"
  attr {
    key: "T"
    value {
      type: DT_DOUBLE
    }
  }
  attr {
    key: "_class"
    value {
      list {
        s: "loc:@Feature_normalization/truediv"
      }
    }
  }
}
node {
  name: "score/gradients/Feature_normalization/truediv_grad/Sum"
  op: "Sum"
  input: "score/gradients/Feature_normalization/truediv_grad/RealDiv"
  input: "score/gradients/Feature_normalization/truediv_grad/BroadcastGradientArgs"
  attr {
    key: "T"
    value {
      type: DT_DOUBLE
    }
  }
  attr {
    key: "Tidx"
    value {
      type: DT_INT32
    }
  }
  attr {
    key: "_class"
    value {
      list {
        s: "loc:@Feature_normalization/truediv"
      }
    }
  }
  attr {
    key: "keep_dims"
    value {
      b: false
    }
  }
}
node {
  name: "score/gradients/Feature_normalization/truediv_grad/Reshape"
  op: "Reshape"
  input: "score/gradients/Feature_normalization/truediv_grad/Sum"
  input: "score/gradients/Feature_normalization/truediv_grad/Shape"
  attr {
    key: "T"
    value {
      type: DT_DOUBLE
    }
  }
  attr {
    key: "Tshape"
    value {
      type: DT_INT32
    }
  }
  attr {
    key: "_class"
    value {
      list {
        s: "loc:@Feature_normalization/truediv"
      }
    }
  }
}
node {
  name: "score/gradients/Feature_normalization/sub_grad/Shape"
  op: "Shape"
  input: "Feature_normalization/Cast"
  attr {
    key: "T"
    value {
      type: DT_DOUBLE
    }
  }
  attr {
    key: "_class"
    value {
      list {
        s: "loc:@Feature_normalization/sub"
      }
    }
  }
  attr {
    key: "out_type"
    value {
      type: DT_INT32
    }
  }
}
node {
  name: "score/gradients/Feature_normalization/sub_grad/Shape_1"
  op: "Shape"
  input: "Feature_normalization/sub/y"
  attr {
    key: "T"
    value {
      type: DT_DOUBLE
    }
  }
  attr {
    key: "_class"
    value {
      list {
        s: "loc:@Feature_normalization/sub"
      }
    }
  }
  attr {
    key: "out_type"
    value {
      type: DT_INT32
    }
  }
}
node {
  name: "score/gradients/Feature_normalization/sub_grad/BroadcastGradientArgs"
  op: "BroadcastGradientArgs"
  input: "score/gradients/Feature_normalization/sub_grad/Shape"
  input: "score/gradients/Feature_normalization/sub_grad/Shape_1"
  attr {
    key: "T"
    value {
      type: DT_INT32
    }
  }
  attr {
    key: "_class"
    value {
      list {
        s: "loc:@Feature_normalization/sub"
      }
    }
  }
}
node {
  name: "score/gradients/Feature_normalization/sub_grad/Sum"
  op: "Sum"
  input: "score/gradients/Feature_normalization/truediv_grad/Reshape"
  input: "score/gradients/Feature_normalization/sub_grad/BroadcastGradientArgs"
  attr {
    key: "T"
    value {
      type: DT_DOUBLE
    }
  }
  attr {
    key: "Tidx"
    value {
      type: DT_INT32
    }
  }
  attr {
    key: "_class"
    value {
      list {
        s: "loc:@Feature_normalization/sub"
      }
    }
  }
  attr {
    key: "keep_dims"
    value {
      b: false
    }
  }
}
node {
  name: "score/gradients/Feature_normalization/sub_grad/Reshape"
  op: "Reshape"
  input: "score/gradients/Feature_normalization/sub_grad/Sum"
  input: "score/gradients/Feature_normalization/sub_grad/Shape"
  attr {
    key: "T"
    value {
      type: DT_DOUBLE
    }
  }
  attr {
    key: "Tshape"
    value {
      type: DT_INT32
    }
  }
  attr {
    key: "_class"
    value {
      list {
        s: "loc:@Feature_normalization/sub"
      }
    }
  }
}
node {
  name: "score/gradients/Feature_normalization/Cast_grad/Cast"
  op: "Cast"
  input: "score/gradients/Feature_normalization/sub_grad/Reshape"
  attr {
    key: "DstT"
    value {
      type: DT_FLOAT
    }
  }
  attr {
    key: "SrcT"
    value {
      type: DT_DOUBLE
    }
  }
  attr {
    key: "Truncate"
    value {
      b: false
    }
  }
  attr {
    key: "_class"
    value {
      list {
        s: "loc:@Feature_normalization/Cast"
      }
    }
  }
}
node {
  name: "score/strided_slice/stack"
  op: "Const"
  attr {
    key: "dtype"
    value {
      type: DT_INT32
    }
  }
  attr {
    key: "value"
    value {
      tensor {
        dtype: DT_INT32
        tensor_shape {
          dim {
            size: 2
          }
        }
        tensor_content: "\000\000\000\000\377\377\377\377"
      }
    }
  }
}
node {
  name: "score/strided_slice/stack_1"
  op: "Const"
  attr {
    key: "dtype"
    value {
      type: DT_INT32
    }
  }
  attr {
    key: "value"
    value {
      tensor {
        dtype: DT_INT32
        tensor_shape {
          dim {
            size: 2
          }
        }
        tensor_content: "\000\000\000\000\000\000\000\000"
      }
    }
  }
}
node {
  name: "score/strided_slice/stack_2"
  op: "Const"
  attr {
    key: "dtype"
    value {
      type: DT_INT32
    }
  }
  attr {
    key: "value"
    value {
      tensor {
        dtype: DT_INT32
        tensor_shape {
          dim {
            size: 2
          }
        }
        tensor_content: "\001\000\000\000\001\000\000\000"
      }
    }
  }
}
node {
  name: "score/strided_slice"
  op: "StridedSlice"
  input: "score/gradients/Feature_normalization/Cast_grad/Cast"
  input: "score/strided_slice/stack"
  input: "score/strided_slice/stack_1"
  input: "score/strided_slice/stack_2"
  attr {
    key: "Index"
    value {
      type: DT_INT32
    }
  }
  attr {
    key: "T"
    value {
      type: DT_FLOAT
    }
  }
  attr {
    key: "begin_mask"
    value {
      i: 1
    }
  }
  attr {
    key: "ellipsis_mask"
    value {
      i: 0
    }
  }
  attr {
    key: "end_mask"
    value {
      i: 3
    }
  }
  attr {
    key: "new_axis_mask"
    value {
      i: 0
    }
  }
  attr {
    key: "shrink_axis_mask"
    value {
      i: 0
    }
  }
}
library {
}
versions {
}
